…
batch_idx= 2400 noise sigma= [0.66762574] this_snr= [3.50933861]
batch_idx= 2500 noise sigma= [1.58868432] this_snr= [-4.02075218]
batch_idx= 2600 noise sigma= [0.70711496] this_snr= [3.0101995]
batch_idx= 2700 noise sigma= [0.48127213] this_snr= [6.35218571]
batch_idx= 2800 noise sigma= [0.35376925] this_snr= [9.02559841]
batch_idx= 2900 noise sigma= [1.72767379] this_snr= [-4.74923492]
_________________________________________________________________
Layer (type)                 Output Shape              Param #   
=================================================================
input_1 (InputLayer)         (None, 100, 4)            0         
_________________________________________________________________
conv1d_1 (Conv1D)            (None, 100, 64)           832       
_________________________________________________________________
activation_1 (Activation)    (None, 100, 64)           0         
_________________________________________________________________
conv1d_2 (Conv1D)            (None, 100, 64)           12352     
_________________________________________________________________
batch_normalization_1 (Batch (None, 100, 64)           256       
_________________________________________________________________
activation_2 (Activation)    (None, 100, 64)           0         
_________________________________________________________________
conv1d_3 (Conv1D)            (None, 100, 64)           12352     
_________________________________________________________________
batch_normalization_2 (Batch (None, 100, 64)           256       
_________________________________________________________________
activation_3 (Activation)    (None, 100, 64)           0         
_________________________________________________________________
conv1d_4 (Conv1D)            (None, 100, 64)           12352     
_________________________________________________________________
batch_normalization_3 (Batch (None, 100, 64)           256       
_________________________________________________________________
activation_4 (Activation)    (None, 100, 64)           0         
_________________________________________________________________
conv1d_5 (Conv1D)            (None, 100, 64)           12352     
_________________________________________________________________
batch_normalization_4 (Batch (None, 100, 64)           256       
_________________________________________________________________
activation_5 (Activation)    (None, 100, 64)           0         
_________________________________________________________________
conv1d_6 (Conv1D)            (None, 100, 64)           12352     
_________________________________________________________________
batch_normalization_5 (Batch (None, 100, 64)           256       
_________________________________________________________________
activation_6 (Activation)    (None, 100, 64)           0         
_________________________________________________________________
conv1d_7 (Conv1D)            (None, 100, 64)           12352     
_________________________________________________________________
batch_normalization_6 (Batch (None, 100, 64)           256       
_________________________________________________________________
activation_7 (Activation)    (None, 100, 64)           0         
_________________________________________________________________
conv1d_8 (Conv1D)            (None, 100, 64)           12352     
_________________________________________________________________
batch_normalization_7 (Batch (None, 100, 64)           256       
_________________________________________________________________
activation_8 (Activation)    (None, 100, 64)           0         
_________________________________________________________________
conv1d_9 (Conv1D)            (None, 100, 64)           12352     
_________________________________________________________________
batch_normalization_8 (Batch (None, 100, 64)           256       
_________________________________________________________________
activation_9 (Activation)    (None, 100, 64)           0         
_________________________________________________________________
conv1d_10 (Conv1D)           (None, 100, 64)           12352     
_________________________________________________________________
batch_normalization_9 (Batch (None, 100, 64)           256       
_________________________________________________________________
activation_10 (Activation)   (None, 100, 64)           0         
_________________________________________________________________
conv1d_11 (Conv1D)           (None, 100, 64)           12352     
_________________________________________________________________
batch_normalization_10 (Batc (None, 100, 64)           256       
_________________________________________________________________
activation_11 (Activation)   (None, 100, 64)           0         
_________________________________________________________________
conv1d_12 (Conv1D)           (None, 100, 64)           12352     
_________________________________________________________________
batch_normalization_11 (Batc (None, 100, 64)           256       
_________________________________________________________________
activation_12 (Activation)   (None, 100, 64)           0         
_________________________________________________________________
conv1d_13 (Conv1D)           (None, 100, 64)           12352     
_________________________________________________________________
batch_normalization_12 (Batc (None, 100, 64)           256       
_________________________________________________________________
activation_13 (Activation)   (None, 100, 64)           0         
_________________________________________________________________
conv1d_14 (Conv1D)           (None, 100, 64)           12352     
_________________________________________________________________
batch_normalization_13 (Batc (None, 100, 64)           256       
_________________________________________________________________
activation_14 (Activation)   (None, 100, 64)           0         
_________________________________________________________________
conv1d_15 (Conv1D)           (None, 100, 64)           12352     
_________________________________________________________________
batch_normalization_14 (Batc (None, 100, 64)           256       
_________________________________________________________________
activation_15 (Activation)   (None, 100, 64)           0         
_________________________________________________________________
conv1d_16 (Conv1D)           (None, 100, 64)           12352     
_________________________________________________________________
batch_normalization_15 (Batc (None, 100, 64)           256       
_________________________________________________________________
activation_16 (Activation)   (None, 100, 64)           0         
_________________________________________________________________
conv1d_17 (Conv1D)           (None, 100, 64)           12352     
_________________________________________________________________
batch_normalization_16 (Batc (None, 100, 64)           256       
_________________________________________________________________
activation_17 (Activation)   (None, 100, 64)           0         
_________________________________________________________________
conv1d_18 (Conv1D)           (None, 100, 64)           12352     
_________________________________________________________________
batch_normalization_17 (Batc (None, 100, 64)           256       
_________________________________________________________________
activation_18 (Activation)   (None, 100, 64)           0         
_________________________________________________________________
conv1d_19 (Conv1D)           (None, 100, 64)           12352     
_________________________________________________________________
batch_normalization_18 (Batc (None, 100, 64)           256       
_________________________________________________________________
activation_19 (Activation)   (None, 100, 64)           0         
_________________________________________________________________
conv1d_20 (Conv1D)           (None, 100, 3)            579       
=================================================================
Total params: 228,355
Trainable params: 226,051
Non-trainable params: 2,304
_________________________________________________________________
None
Train on 7000 samples, validate on 3000 samples
Epoch 1/500
 - 16s - loss: 1.0873 - mean_squared_error: 1.0873 - val_loss: 0.8788 - val_mean_squared_error: 0.8788
Epoch 2/500
 - 6s - loss: 0.7080 - mean_squared_error: 0.7080 - val_loss: 1.6076 - val_mean_squared_error: 1.6076
…
