…
se, print_test_traj=False, rec_quantize=False, rec_quantize_level=2, rec_quantize_limit=1.0, snr_interval=5, snr_points=9, snr_test_end=16.0, snr_test_start=-5.0, test_channel_mode='block_norm', test_ratio=1, train_channel_high=15.0, train_channel_low=15.0, train_channel_mode='block_norm')
[Convolutional Code Codec] Encoder M  [2]  Generator Matrix  [[7 5]]  Feedback  7
_________________________________________________________________
Layer (type)                 Output Shape              Param #   
=================================================================
input_1 (InputLayer)         (None, 100, 3)            0         
_________________________________________________________________
conv1d_1 (Conv1D)            (None, 100, 64)           640       
_________________________________________________________________
activation_1 (Activation)    (None, 100, 64)           0         
_________________________________________________________________
conv1d_2 (Conv1D)            (None, 100, 64)           12352     
_________________________________________________________________
batch_normalization_1 (Batch (None, 100, 64)           256       
_________________________________________________________________
activation_2 (Activation)    (None, 100, 64)           0         
_________________________________________________________________
conv1d_3 (Conv1D)            (None, 100, 64)           12352     
_________________________________________________________________
batch_normalization_2 (Batch (None, 100, 64)           256       
_________________________________________________________________
activation_3 (Activation)    (None, 100, 64)           0         
_________________________________________________________________
conv1d_4 (Conv1D)            (None, 100, 64)           12352     
_________________________________________________________________
batch_normalization_3 (Batch (None, 100, 64)           256       
_________________________________________________________________
activation_4 (Activation)    (None, 100, 64)           0         
_________________________________________________________________
conv1d_5 (Conv1D)            (None, 100, 64)           12352     
_________________________________________________________________
batch_normalization_4 (Batch (None, 100, 64)           256       
_________________________________________________________________
activation_5 (Activation)    (None, 100, 64)           0         
_________________________________________________________________
conv1d_6 (Conv1D)            (None, 100, 64)           12352     
_________________________________________________________________
batch_normalization_5 (Batch (None, 100, 64)           256       
_________________________________________________________________
activation_6 (Activation)    (None, 100, 64)           0         
_________________________________________________________________
conv1d_7 (Conv1D)            (None, 100, 64)           12352     
_________________________________________________________________
batch_normalization_6 (Batch (None, 100, 64)           256       
_________________________________________________________________
activation_7 (Activation)    (None, 100, 64)           0         
_________________________________________________________________
conv1d_8 (Conv1D)            (None, 100, 64)           12352     
_________________________________________________________________
batch_normalization_7 (Batch (None, 100, 64)           256       
_________________________________________________________________
activation_8 (Activation)    (None, 100, 64)           0         
_________________________________________________________________
conv1d_9 (Conv1D)            (None, 100, 64)           12352     
_________________________________________________________________
batch_normalization_8 (Batch (None, 100, 64)           256       
_________________________________________________________________
activation_9 (Activation)    (None, 100, 64)           0         
_________________________________________________________________
conv1d_10 (Conv1D)           (None, 100, 64)           12352     
_________________________________________________________________
batch_normalization_9 (Batch (None, 100, 64)           256       
_________________________________________________________________
activation_10 (Activation)   (None, 100, 64)           0         
_________________________________________________________________
conv1d_11 (Conv1D)           (None, 100, 64)           12352     
_________________________________________________________________
batch_normalization_10 (Batc (None, 100, 64)           256       
_________________________________________________________________
activation_11 (Activation)   (None, 100, 64)           0         
_________________________________________________________________
conv1d_12 (Conv1D)           (None, 100, 64)           12352     
_________________________________________________________________
batch_normalization_11 (Batc (None, 100, 64)           256       
_________________________________________________________________
activation_12 (Activation)   (None, 100, 64)           0         
_________________________________________________________________
conv1d_13 (Conv1D)           (None, 100, 64)           12352     
_________________________________________________________________
batch_normalization_12 (Batc (None, 100, 64)           256       
_________________________________________________________________
activation_13 (Activation)   (None, 100, 64)           0         
_________________________________________________________________
conv1d_14 (Conv1D)           (None, 100, 64)           12352     
_________________________________________________________________
batch_normalization_13 (Batc (None, 100, 64)           256       
_________________________________________________________________
activation_14 (Activation)   (None, 100, 64)           0         
_________________________________________________________________
conv1d_15 (Conv1D)           (None, 100, 64)           12352     
_________________________________________________________________
batch_normalization_14 (Batc (None, 100, 64)           256       
_________________________________________________________________
activation_15 (Activation)   (None, 100, 64)           0         
_________________________________________________________________
conv1d_16 (Conv1D)           (None, 100, 3)            579       
=================================================================
Total params: 177,731
Trainable params: 175,939
Non-trainable params: 1,792
_________________________________________________________________
None
Train on 14000 samples, validate on 6000 samples
Epoch 1/200
 - 19s - loss: 1.3602 - enhancedloss: 1.3602 - val_loss: 1.0402 - val_enhancedloss: 1.0402
Epoch 2/200
 - 9s - loss: 0.9942 - enhancedloss: 0.9942 - val_loss: 1.0111 - val_enhancedloss: 1.0111
…
