…
t=1.0, snr_points=9, snr_test_end=15.0, snr_test_start=15.0, test_channel_mode='block_norm', test_ratio=1, train_channel_high=15.0, train_channel_low=15.0, train_channel_mode='block_norm')
[Convolutional Code Codec] Encoder M  [2]  Generator Matrix  [[7 5]]  Feedback  7
__________________________________________________________________________________________________
Layer (type)                    Output Shape         Param #     Connected to                     
==================================================================================================
input_1 (InputLayer)            (None, 100, 1)       0                                            
__________________________________________________________________________________________________
conv1d_1 (Conv1D)               (None, 100, 1)       4           input_1[0][0]                    
__________________________________________________________________________________________________
activation_1 (Activation)       (None, 100, 1)       0           conv1d_1[0][0]                   
__________________________________________________________________________________________________
conv1d_2 (Conv1D)               (None, 100, 64)      256         activation_1[0][0]               
__________________________________________________________________________________________________
batch_normalization_1 (BatchNor (None, 100, 64)      256         conv1d_2[0][0]                   
__________________________________________________________________________________________________
activation_2 (Activation)       (None, 100, 64)      0           batch_normalization_1[0][0]      
__________________________________________________________________________________________________
conv1d_3 (Conv1D)               (None, 100, 64)      12352       activation_2[0][0]               
__________________________________________________________________________________________________
batch_normalization_2 (BatchNor (None, 100, 64)      256         conv1d_3[0][0]                   
__________________________________________________________________________________________________
activation_3 (Activation)       (None, 100, 64)      0           batch_normalization_2[0][0]      
__________________________________________________________________________________________________
conv1d_4 (Conv1D)               (None, 100, 64)      12352       activation_3[0][0]               
__________________________________________________________________________________________________
batch_normalization_3 (BatchNor (None, 100, 64)      256         conv1d_4[0][0]                   
__________________________________________________________________________________________________
activation_4 (Activation)       (None, 100, 64)      0           batch_normalization_3[0][0]      
__________________________________________________________________________________________________
conv1d_5 (Conv1D)               (None, 100, 64)      12352       activation_4[0][0]               
__________________________________________________________________________________________________
batch_normalization_4 (BatchNor (None, 100, 64)      256         conv1d_5[0][0]                   
__________________________________________________________________________________________________
activation_5 (Activation)       (None, 100, 64)      0           batch_normalization_4[0][0]      
__________________________________________________________________________________________________
conv1d_6 (Conv1D)               (None, 100, 64)      12352       activation_5[0][0]               
__________________________________________________________________________________________________
batch_normalization_5 (BatchNor (None, 100, 64)      256         conv1d_6[0][0]                   
__________________________________________________________________________________________________
activation_6 (Activation)       (None, 100, 64)      0           batch_normalization_5[0][0]      
__________________________________________________________________________________________________
conv1d_7 (Conv1D)               (None, 100, 64)      12352       activation_6[0][0]               
__________________________________________________________________________________________________
batch_normalization_6 (BatchNor (None, 100, 64)      256         conv1d_7[0][0]                   
__________________________________________________________________________________________________
activation_7 (Activation)       (None, 100, 64)      0           batch_normalization_6[0][0]      
__________________________________________________________________________________________________
conv1d_8 (Conv1D)               (None, 100, 64)      12352       activation_7[0][0]               
__________________________________________________________________________________________________
batch_normalization_7 (BatchNor (None, 100, 64)      256         conv1d_8[0][0]                   
__________________________________________________________________________________________________
activation_8 (Activation)       (None, 100, 64)      0           batch_normalization_7[0][0]      
__________________________________________________________________________________________________
conv1d_9 (Conv1D)               (None, 100, 64)      12352       activation_8[0][0]               
__________________________________________________________________________________________________
batch_normalization_8 (BatchNor (None, 100, 64)      256         conv1d_9[0][0]                   
__________________________________________________________________________________________________
activation_9 (Activation)       (None, 100, 64)      0           batch_normalization_8[0][0]      
__________________________________________________________________________________________________
conv1d_10 (Conv1D)              (None, 100, 64)      12352       activation_9[0][0]               
__________________________________________________________________________________________________
batch_normalization_9 (BatchNor (None, 100, 64)      256         conv1d_10[0][0]                  
__________________________________________________________________________________________________
activation_10 (Activation)      (None, 100, 64)      0           batch_normalization_9[0][0]      
__________________________________________________________________________________________________
conv1d_11 (Conv1D)              (None, 100, 64)      12352       activation_10[0][0]              
__________________________________________________________________________________________________
batch_normalization_10 (BatchNo (None, 100, 64)      256         conv1d_11[0][0]                  
__________________________________________________________________________________________________
activation_11 (Activation)      (None, 100, 64)      0           batch_normalization_10[0][0]     
__________________________________________________________________________________________________
conv1d_12 (Conv1D)              (None, 100, 64)      12352       activation_11[0][0]              
__________________________________________________________________________________________________
batch_normalization_11 (BatchNo (None, 100, 64)      256         conv1d_12[0][0]                  
__________________________________________________________________________________________________
activation_12 (Activation)      (None, 100, 64)      0           batch_normalization_11[0][0]     
__________________________________________________________________________________________________
conv1d_13 (Conv1D)              (None, 100, 64)      12352       activation_12[0][0]              
__________________________________________________________________________________________________
batch_normalization_12 (BatchNo (None, 100, 64)      256         conv1d_13[0][0]                  
__________________________________________________________________________________________________
activation_13 (Activation)      (None, 100, 64)      0           batch_normalization_12[0][0]     
__________________________________________________________________________________________________
conv1d_14 (Conv1D)              (None, 100, 64)      12352       activation_13[0][0]              
__________________________________________________________________________________________________
batch_normalization_13 (BatchNo (None, 100, 64)      256         conv1d_14[0][0]                  
__________________________________________________________________________________________________
activation_14 (Activation)      (None, 100, 64)      0           batch_normalization_13[0][0]     
__________________________________________________________________________________________________
conv1d_15 (Conv1D)              (None, 100, 64)      12352       activation_14[0][0]              
__________________________________________________________________________________________________
batch_normalization_14 (BatchNo (None, 100, 64)      256         conv1d_15[0][0]                  
__________________________________________________________________________________________________
activation_15 (Activation)      (None, 100, 64)      0           batch_normalization_14[0][0]     
__________________________________________________________________________________________________
conv1d_16 (Conv1D)              (None, 100, 1)       193         activation_15[0][0]              
__________________________________________________________________________________________________
subtract_1 (Subtract)           (None, 100, 1)       0           input_1[0][0]                    
                                                                 conv1d_16[0][0]                  
==================================================================================================
Total params: 164,613
Trainable params: 162,821
Non-trainable params: 1,792
__________________________________________________________________________________________________
…
