…
batch_idx= 8400 noise sigma= 0.31622776601683794 this_snr= 10.0
batch_idx= 11200 noise sigma= 0.1778279410038923 this_snr= 15.0
batch_idx= 0 noise sigma= 1.7782794100389228 this_snr= -5.0
batch_idx= 1200 noise sigma= 1.0 this_snr= 0.0
batch_idx= 2400 noise sigma= 0.5623413251903491 this_snr= 5.0
batch_idx= 3600 noise sigma= 0.31622776601683794 this_snr= 10.0
batch_idx= 4800 noise sigma= 0.1778279410038923 this_snr= 15.0
_________________________________________________________________
Layer (type)                 Output Shape              Param #   
=================================================================
input_1 (InputLayer)         (None, 100, 4)            0         
_________________________________________________________________
conv1d_1 (Conv1D)            (None, 100, 64)           832       
_________________________________________________________________
activation_1 (Activation)    (None, 100, 64)           0         
_________________________________________________________________
conv1d_2 (Conv1D)            (None, 100, 64)           12352     
_________________________________________________________________
batch_normalization_1 (Batch (None, 100, 64)           256       
_________________________________________________________________
activation_2 (Activation)    (None, 100, 64)           0         
_________________________________________________________________
conv1d_3 (Conv1D)            (None, 100, 64)           12352     
_________________________________________________________________
batch_normalization_2 (Batch (None, 100, 64)           256       
_________________________________________________________________
activation_3 (Activation)    (None, 100, 64)           0         
_________________________________________________________________
conv1d_4 (Conv1D)            (None, 100, 64)           12352     
_________________________________________________________________
batch_normalization_3 (Batch (None, 100, 64)           256       
_________________________________________________________________
activation_4 (Activation)    (None, 100, 64)           0         
_________________________________________________________________
conv1d_5 (Conv1D)            (None, 100, 64)           12352     
_________________________________________________________________
batch_normalization_4 (Batch (None, 100, 64)           256       
_________________________________________________________________
activation_5 (Activation)    (None, 100, 64)           0         
_________________________________________________________________
conv1d_6 (Conv1D)            (None, 100, 64)           12352     
_________________________________________________________________
batch_normalization_5 (Batch (None, 100, 64)           256       
_________________________________________________________________
activation_6 (Activation)    (None, 100, 64)           0         
_________________________________________________________________
conv1d_7 (Conv1D)            (None, 100, 64)           12352     
_________________________________________________________________
batch_normalization_6 (Batch (None, 100, 64)           256       
_________________________________________________________________
activation_7 (Activation)    (None, 100, 64)           0         
_________________________________________________________________
conv1d_8 (Conv1D)            (None, 100, 64)           12352     
_________________________________________________________________
batch_normalization_7 (Batch (None, 100, 64)           256       
_________________________________________________________________
activation_8 (Activation)    (None, 100, 64)           0         
_________________________________________________________________
conv1d_9 (Conv1D)            (None, 100, 64)           12352     
_________________________________________________________________
batch_normalization_8 (Batch (None, 100, 64)           256       
_________________________________________________________________
activation_9 (Activation)    (None, 100, 64)           0         
_________________________________________________________________
conv1d_10 (Conv1D)           (None, 100, 64)           12352     
_________________________________________________________________
batch_normalization_9 (Batch (None, 100, 64)           256       
_________________________________________________________________
activation_10 (Activation)   (None, 100, 64)           0         
_________________________________________________________________
conv1d_11 (Conv1D)           (None, 100, 64)           12352     
_________________________________________________________________
batch_normalization_10 (Batc (None, 100, 64)           256       
_________________________________________________________________
activation_11 (Activation)   (None, 100, 64)           0         
_________________________________________________________________
conv1d_12 (Conv1D)           (None, 100, 64)           12352     
_________________________________________________________________
batch_normalization_11 (Batc (None, 100, 64)           256       
_________________________________________________________________
activation_12 (Activation)   (None, 100, 64)           0         
_________________________________________________________________
conv1d_13 (Conv1D)           (None, 100, 64)           12352     
_________________________________________________________________
batch_normalization_12 (Batc (None, 100, 64)           256       
_________________________________________________________________
activation_13 (Activation)   (None, 100, 64)           0         
_________________________________________________________________
conv1d_14 (Conv1D)           (None, 100, 64)           12352     
_________________________________________________________________
batch_normalization_13 (Batc (None, 100, 64)           256       
_________________________________________________________________
activation_14 (Activation)   (None, 100, 64)           0         
_________________________________________________________________
conv1d_15 (Conv1D)           (None, 100, 64)           12352     
_________________________________________________________________
batch_normalization_14 (Batc (None, 100, 64)           256       
_________________________________________________________________
activation_15 (Activation)   (None, 100, 64)           0         
_________________________________________________________________
conv1d_16 (Conv1D)           (None, 100, 3)            579       
=================================================================
Total params: 177,923
Trainable params: 176,131
Non-trainable params: 1,792
_________________________________________________________________
None
Train on 14000 samples, validate on 6000 samples
Epoch 1/500
 - 65s - loss: 1.0971 - mean_squared_error: 1.0971 - val_loss: 1.4449 - val_mean_squared_error: 1.4449
Epoch 2/500
 - 61s - loss: 0.7178 - mean_squared_error: 0.7178 - val_loss: 0.7963 - val_mean_squared_error: 0.7963
…
