…
t=1.0, snr_points=9, snr_test_end=15.0, snr_test_start=15.0, test_channel_mode='block_norm', test_ratio=1, train_channel_high=15.0, train_channel_low=15.0, train_channel_mode='block_norm')
[Convolutional Code Codec] Encoder M  [2]  Generator Matrix  [[7 5]]  Feedback  7
__________________________________________________________________________________________________
Layer (type)                    Output Shape         Param #     Connected to                     
==================================================================================================
input_1 (InputLayer)            (None, 1, 100, 5)    0                                            
__________________________________________________________________________________________________
conv2d_1 (Conv2D)               (None, 1, 100, 5)    10          input_1[0][0]                    
__________________________________________________________________________________________________
activation_1 (Activation)       (None, 1, 100, 5)    0           conv2d_1[0][0]                   
__________________________________________________________________________________________________
conv2d_2 (Conv2D)               (None, 1, 100, 64)   2944        activation_1[0][0]               
__________________________________________________________________________________________________
batch_normalization_1 (BatchNor (None, 1, 100, 64)   256         conv2d_2[0][0]                   
__________________________________________________________________________________________________
activation_2 (Activation)       (None, 1, 100, 64)   0           batch_normalization_1[0][0]      
__________________________________________________________________________________________________
conv2d_3 (Conv2D)               (None, 1, 100, 64)   36928       activation_2[0][0]               
__________________________________________________________________________________________________
batch_normalization_2 (BatchNor (None, 1, 100, 64)   256         conv2d_3[0][0]                   
__________________________________________________________________________________________________
activation_3 (Activation)       (None, 1, 100, 64)   0           batch_normalization_2[0][0]      
__________________________________________________________________________________________________
conv2d_4 (Conv2D)               (None, 1, 100, 64)   36928       activation_3[0][0]               
__________________________________________________________________________________________________
batch_normalization_3 (BatchNor (None, 1, 100, 64)   256         conv2d_4[0][0]                   
__________________________________________________________________________________________________
activation_4 (Activation)       (None, 1, 100, 64)   0           batch_normalization_3[0][0]      
__________________________________________________________________________________________________
conv2d_5 (Conv2D)               (None, 1, 100, 64)   36928       activation_4[0][0]               
__________________________________________________________________________________________________
batch_normalization_4 (BatchNor (None, 1, 100, 64)   256         conv2d_5[0][0]                   
__________________________________________________________________________________________________
activation_5 (Activation)       (None, 1, 100, 64)   0           batch_normalization_4[0][0]      
__________________________________________________________________________________________________
conv2d_6 (Conv2D)               (None, 1, 100, 64)   36928       activation_5[0][0]               
__________________________________________________________________________________________________
batch_normalization_5 (BatchNor (None, 1, 100, 64)   256         conv2d_6[0][0]                   
__________________________________________________________________________________________________
activation_6 (Activation)       (None, 1, 100, 64)   0           batch_normalization_5[0][0]      
__________________________________________________________________________________________________
conv2d_7 (Conv2D)               (None, 1, 100, 64)   36928       activation_6[0][0]               
__________________________________________________________________________________________________
batch_normalization_6 (BatchNor (None, 1, 100, 64)   256         conv2d_7[0][0]                   
__________________________________________________________________________________________________
activation_7 (Activation)       (None, 1, 100, 64)   0           batch_normalization_6[0][0]      
__________________________________________________________________________________________________
conv2d_8 (Conv2D)               (None, 1, 100, 64)   36928       activation_7[0][0]               
__________________________________________________________________________________________________
batch_normalization_7 (BatchNor (None, 1, 100, 64)   256         conv2d_8[0][0]                   
__________________________________________________________________________________________________
activation_8 (Activation)       (None, 1, 100, 64)   0           batch_normalization_7[0][0]      
__________________________________________________________________________________________________
conv2d_9 (Conv2D)               (None, 1, 100, 64)   36928       activation_8[0][0]               
__________________________________________________________________________________________________
batch_normalization_8 (BatchNor (None, 1, 100, 64)   256         conv2d_9[0][0]                   
__________________________________________________________________________________________________
activation_9 (Activation)       (None, 1, 100, 64)   0           batch_normalization_8[0][0]      
__________________________________________________________________________________________________
conv2d_10 (Conv2D)              (None, 1, 100, 64)   36928       activation_9[0][0]               
__________________________________________________________________________________________________
batch_normalization_9 (BatchNor (None, 1, 100, 64)   256         conv2d_10[0][0]                  
__________________________________________________________________________________________________
activation_10 (Activation)      (None, 1, 100, 64)   0           batch_normalization_9[0][0]      
__________________________________________________________________________________________________
conv2d_11 (Conv2D)              (None, 1, 100, 64)   36928       activation_10[0][0]              
__________________________________________________________________________________________________
batch_normalization_10 (BatchNo (None, 1, 100, 64)   256         conv2d_11[0][0]                  
__________________________________________________________________________________________________
activation_11 (Activation)      (None, 1, 100, 64)   0           batch_normalization_10[0][0]     
__________________________________________________________________________________________________
conv2d_12 (Conv2D)              (None, 1, 100, 64)   36928       activation_11[0][0]              
__________________________________________________________________________________________________
batch_normalization_11 (BatchNo (None, 1, 100, 64)   256         conv2d_12[0][0]                  
__________________________________________________________________________________________________
activation_12 (Activation)      (None, 1, 100, 64)   0           batch_normalization_11[0][0]     
__________________________________________________________________________________________________
conv2d_13 (Conv2D)              (None, 1, 100, 64)   36928       activation_12[0][0]              
__________________________________________________________________________________________________
batch_normalization_12 (BatchNo (None, 1, 100, 64)   256         conv2d_13[0][0]                  
__________________________________________________________________________________________________
activation_13 (Activation)      (None, 1, 100, 64)   0           batch_normalization_12[0][0]     
__________________________________________________________________________________________________
conv2d_14 (Conv2D)              (None, 1, 100, 64)   36928       activation_13[0][0]              
__________________________________________________________________________________________________
batch_normalization_13 (BatchNo (None, 1, 100, 64)   256         conv2d_14[0][0]                  
__________________________________________________________________________________________________
activation_14 (Activation)      (None, 1, 100, 64)   0           batch_normalization_13[0][0]     
__________________________________________________________________________________________________
conv2d_15 (Conv2D)              (None, 1, 100, 64)   36928       activation_14[0][0]              
__________________________________________________________________________________________________
batch_normalization_14 (BatchNo (None, 1, 100, 64)   256         conv2d_15[0][0]                  
__________________________________________________________________________________________________
activation_15 (Activation)      (None, 1, 100, 64)   0           batch_normalization_14[0][0]     
__________________________________________________________________________________________________
conv2d_16 (Conv2D)              (None, 1, 100, 1)    577         activation_15[0][0]              
__________________________________________________________________________________________________
subtract_1 (Subtract)           (None, 1, 100, 5)    0           input_1[0][0]                    
                                                                 conv2d_16[0][0]                  
==================================================================================================
Total params: 487,179
Trainable params: 485,387
Non-trainable params: 1,792
__________________________________________________________________________________________________
…
