…
2, rec_quantize_limit=1.0, remainlen=2, remainn=0, snr_interval=5, snr_points=9, snr_test_end=16.0, snr_test_start=-5.0, test_channel_mode='block_norm', test_ratio=1, train_channel_high=15.0, train_channel_low=15.0, train_channel_mode='block_norm', use_noisemap=False, use_normaltest=False)
[Convolutional Code Codec] Encoder M  [2]  Generator Matrix  [[7 5]]  Feedback  7
_________________________________________________________________
Layer (type)                 Output Shape              Param #   
=================================================================
input_1 (InputLayer)         (None, 128, 2)            0         
_________________________________________________________________
conv1d_1 (Conv1D)            (None, 128, 64)           448       
_________________________________________________________________
activation_1 (Activation)    (None, 128, 64)           0         
_________________________________________________________________
conv1d_2 (Conv1D)            (None, 128, 64)           12352     
_________________________________________________________________
batch_normalization_1 (Batch (None, 128, 64)           256       
_________________________________________________________________
activation_2 (Activation)    (None, 128, 64)           0         
_________________________________________________________________
conv1d_3 (Conv1D)            (None, 128, 64)           12352     
_________________________________________________________________
batch_normalization_2 (Batch (None, 128, 64)           256       
_________________________________________________________________
activation_3 (Activation)    (None, 128, 64)           0         
_________________________________________________________________
conv1d_4 (Conv1D)            (None, 128, 64)           12352     
_________________________________________________________________
batch_normalization_3 (Batch (None, 128, 64)           256       
_________________________________________________________________
activation_4 (Activation)    (None, 128, 64)           0         
_________________________________________________________________
conv1d_5 (Conv1D)            (None, 128, 64)           12352     
_________________________________________________________________
batch_normalization_4 (Batch (None, 128, 64)           256       
_________________________________________________________________
activation_5 (Activation)    (None, 128, 64)           0         
_________________________________________________________________
conv1d_6 (Conv1D)            (None, 128, 64)           12352     
_________________________________________________________________
batch_normalization_5 (Batch (None, 128, 64)           256       
_________________________________________________________________
activation_6 (Activation)    (None, 128, 64)           0         
_________________________________________________________________
conv1d_7 (Conv1D)            (None, 128, 64)           12352     
_________________________________________________________________
batch_normalization_6 (Batch (None, 128, 64)           256       
_________________________________________________________________
activation_7 (Activation)    (None, 128, 64)           0         
_________________________________________________________________
conv1d_8 (Conv1D)            (None, 128, 64)           12352     
_________________________________________________________________
batch_normalization_7 (Batch (None, 128, 64)           256       
_________________________________________________________________
activation_8 (Activation)    (None, 128, 64)           0         
_________________________________________________________________
conv1d_9 (Conv1D)            (None, 128, 64)           12352     
_________________________________________________________________
batch_normalization_8 (Batch (None, 128, 64)           256       
_________________________________________________________________
activation_9 (Activation)    (None, 128, 64)           0         
_________________________________________________________________
conv1d_10 (Conv1D)           (None, 128, 64)           12352     
_________________________________________________________________
batch_normalization_9 (Batch (None, 128, 64)           256       
_________________________________________________________________
activation_10 (Activation)   (None, 128, 64)           0         
_________________________________________________________________
conv1d_11 (Conv1D)           (None, 128, 64)           12352     
_________________________________________________________________
batch_normalization_10 (Batc (None, 128, 64)           256       
_________________________________________________________________
activation_11 (Activation)   (None, 128, 64)           0         
_________________________________________________________________
conv1d_12 (Conv1D)           (None, 128, 64)           12352     
_________________________________________________________________
batch_normalization_11 (Batc (None, 128, 64)           256       
_________________________________________________________________
activation_12 (Activation)   (None, 128, 64)           0         
_________________________________________________________________
conv1d_13 (Conv1D)           (None, 128, 64)           12352     
_________________________________________________________________
batch_normalization_12 (Batc (None, 128, 64)           256       
_________________________________________________________________
activation_13 (Activation)   (None, 128, 64)           0         
_________________________________________________________________
conv1d_14 (Conv1D)           (None, 128, 64)           12352     
_________________________________________________________________
batch_normalization_13 (Batc (None, 128, 64)           256       
_________________________________________________________________
activation_14 (Activation)   (None, 128, 64)           0         
_________________________________________________________________
conv1d_15 (Conv1D)           (None, 128, 64)           12352     
_________________________________________________________________
batch_normalization_14 (Batc (None, 128, 64)           256       
_________________________________________________________________
activation_15 (Activation)   (None, 128, 64)           0         
_________________________________________________________________
conv1d_16 (Conv1D)           (None, 128, 2)            386       
=================================================================
Total params: 177,346
Trainable params: 175,554
Non-trainable params: 1,792
_________________________________________________________________
None
Train on 7000 samples, validate on 3000 samples
Epoch 1/300
 - 44s - loss: 0.1725 - mean_squared_error: 0.1725 - val_loss: 0.2806 - val_mean_squared_error: 0.2806
Epoch 2/300
 - 40s - loss: 0.0911 - mean_squared_error: 0.0911 - val_loss: 0.0992 - val_mean_squared_error: 0.0992
…
